…
 'Discrete(18)', 'n_envs': 4, 'optimize_memory_usage': 'False', 'replay_buffer': '<stable_baselines3.common.buffers.ReplayBuffer object at 0x000001D5816BC150>', 'replay_buffer_class': "<class 'stable_baselines3.common.buffers.ReplayBuffer'>", 'replay_buffer_kwargs': '{}', '_episode_storage': 'None', 'use_sde_at_warmup': 'False', '_n_calls': 0, 'max_grad_norm': 10, 'exploration_rate': 0.0, 'lr_schedule': '<function get_schedule_fn.<locals>.<lambda> at 0x000001D58391C360>', 'policy': 'CnnPolicy(\n  (q_net): QNetwork(\n    (features_extractor): DonkeyKongCNN(\n      (cnn): Sequential(\n        (0): Conv2d(1, 32, kernel_size=(8, 8), stride=(4, 4))\n        (1): ReLU()\n        (2): Conv2d(32, 64, kernel_size=(4, 4), stride=(2, 2))\n        (3): ReLU()\n        (4): Conv2d(64, 64, kernel_size=(3, 3), stride=(1, 1))\n        (5): ReLU()\n        (6): Conv2d(64, 32, kernel_size=(3, 3), stride=(1, 1))\n        (7): ReLU()\n        (8): Flatten(start_dim=1, end_dim=-1)\n      )\n      (linear): Sequential(\n        (0): Linear(in_features=800, out_features=512, bias=True)\n        (1): ReLU()\n        (2): Linear(in_features=512, out_features=512, bias=True)\n        (3): ReLU()\n      )\n    )\n    (q_net): Sequential(\n      (0): Linear(in_features=512, out_features=64, bias=True)\n      (1): ReLU()\n      (2): Linear(in_features=64, out_features=64, bias=True)\n      (3): ReLU()\n      (4): Linear(in_features=64, out_features=18, bias=True)\n    )\n  )\n  (q_net_target): QNetwork(\n    (features_extractor): DonkeyKongCNN(\n      (cnn): Sequential(\n        (0): Conv2d(1, 32, kernel_size=(8, 8), stride=(4, 4))\n        (1): ReLU()\n        (2): Conv2d(32, 64, kernel_size=(4, 4), stride=(2, 2))\n        (3): ReLU()\n        (4): Conv2d(64, 64, kernel_size=(3, 3), stride=(1, 1))\n        (5): ReLU()\n        (6): Conv2d(64, 32, kernel_size=(3, 3), stride=(1, 1))\n        (7): ReLU()\n        (8): Flatten(start_dim=1, end_dim=-1)\n      )\n      (linear): Sequential(\n        (0): Linear(in_features=800, out_features=512, bias=True)\n        (1): ReLU()\n        (2): Linear(in_features=512, out_features=512, bias=True)\n        (3): ReLU()\n      )\n    )\n    (q_net): Sequential(\n      (0): Linear(in_features=512, out_features=64, bias=True)\n      (1): ReLU()\n      (2): Linear(in_features=64, out_features=64, bias=True)\n      (3): ReLU()\n      (4): Linear(in_features=64, out_features=18, bias=True)\n    )\n  )\n)', 'q_net': 'QNetwork(\n  (features_extractor): DonkeyKongCNN(\n    (cnn): Sequential(\n      (0): Conv2d(1, 32, kernel_size=(8, 8), stride=(4, 4))\n      (1): ReLU()\n      (2): Conv2d(32, 64, kernel_size=(4, 4), stride=(2, 2))\n      (3): ReLU()\n      (4): Conv2d(64, 64, kernel_size=(3, 3), stride=(1, 1))\n      (5): ReLU()\n      (6): Conv2d(64, 32, kernel_size=(3, 3), stride=(1, 1))\n      (7): ReLU()\n      (8): Flatten(start_dim=1, end_dim=-1)\n    )\n    (linear): Sequential(\n      (0): Linear(in_features=800, out_features=512, bias=True)\n      (1): ReLU()\n      (2): Linear(in_features=512, out_features=512, bias=True)\n      (3): ReLU()\n    )\n  )\n  (q_net): Sequential(\n    (0): Linear(in_features=512, out_features=64, bias=True)\n    (1): ReLU()\n    (2): Linear(in_features=64, out_features=64, bias=True)\n    (3): ReLU()\n    (4): Linear(in_features=64, out_features=18, bias=True)\n  )\n)', 'q_net_target': 'QNetwork(\n  (features_extractor): DonkeyKongCNN(\n    (cnn): Sequential(\n      (0): Conv2d(1, 32, kernel_size=(8, 8), stride=(4, 4))\n      (1): ReLU()\n      (2): Conv2d(32, 64, kernel_size=(4, 4), stride=(2, 2))\n      (3): ReLU()\n      (4): Conv2d(64, 64, kernel_size=(3, 3), stride=(1, 1))\n      (5): ReLU()\n      (6): Conv2d(64, 32, kernel_size=(3, 3), stride=(1, 1))\n      (7): ReLU()\n      (8): Flatten(start_dim=1, end_dim=-1)\n    )\n    (linear): Sequential(\n      (0): Linear(in_features=800, out_features=512, bias=True)\n      (1): ReLU()\n      (2): Linear(in_features=512, out_features=512, bias=True)\n      (3): ReLU()\n    )\n  )\n  (q_net): Sequential(\n    (0): Linear(in_features=512, out_features=64, bias=True)\n    (1): ReLU()\n    (2): Linear(in_features=64, out_features=64, bias=True)\n    (3): ReLU()\n    (4): Linear(in_features=64, out_features=18, bias=True)\n  )\n)', 'batch_norm_stats': '[]', 'batch_norm_stats_target': '[]', 'exploration_schedule': '<function get_linear_fn.<locals>.func at 0x000001D5B83918A0>', '_logger': '<stable_baselines3.common.logger.Logger object at 0x000001D5B5FAD490>'}
2024-10-30 11:16:15,417 INFO    MainThread:4832 [wandb_run.py:_tensorboard_callback():1556] tensorboard callback: DQN_DonkeyKong\DQN_0, True
…
