…
    value: <function get_linear_fn.<locals>.func at 0x000001D5B83918A0>
gamma:
    value: 0.99
gradient_steps:
    value: 1
learning_rate:
    value: 0.0001
learning_starts:
    value: 10000
lr_schedule:
    value: <function get_schedule_fn.<locals>.<lambda> at 0x000001D58391C360>
max_grad_norm:
    value: 10
n_envs:
    value: 4
num_timesteps:
    value: 0
observation_space:
    value: Box(0, 255, (1, 84, 84), uint8)
optimize_memory_usage:
    value: "False"
policy:
    value: |-
        CnnPolicy(
          (q_net): QNetwork(
            (features_extractor): DonkeyKongCNN(
              (cnn): Sequential(
                (0): Conv2d(1, 32, kernel_size=(8, 8), stride=(4, 4))
                (1): ReLU()
                (2): Conv2d(32, 64, kernel_size=(4, 4), stride=(2, 2))
                (3): ReLU()
                (4): Conv2d(64, 64, kernel_size=(3, 3), stride=(1, 1))
                (5): ReLU()
                (6): Conv2d(64, 32, kernel_size=(3, 3), stride=(1, 1))
                (7): ReLU()
                (8): Flatten(start_dim=1, end_dim=-1)
              )
              (linear): Sequential(
                (0): Linear(in_features=800, out_features=512, bias=True)
                (1): ReLU()
                (2): Linear(in_features=512, out_features=512, bias=True)
                (3): ReLU()
              )
            )
            (q_net): Sequential(
              (0): Linear(in_features=512, out_features=64, bias=True)
              (1): ReLU()
              (2): Linear(in_features=64, out_features=64, bias=True)
              (3): ReLU()
              (4): Linear(in_features=64, out_features=18, bias=True)
            )
          )
          (q_net_target): QNetwork(
            (features_extractor): DonkeyKongCNN(
              (cnn): Sequential(
                (0): Conv2d(1, 32, kernel_size=(8, 8), stride=(4, 4))
                (1): ReLU()
                (2): Conv2d(32, 64, kernel_size=(4, 4), stride=(2, 2))
                (3): ReLU()
                (4): Conv2d(64, 64, kernel_size=(3, 3), stride=(1, 1))
                (5): ReLU()
                (6): Conv2d(64, 32, kernel_size=(3, 3), stride=(1, 1))
                (7): ReLU()
                (8): Flatten(start_dim=1, end_dim=-1)
              )
              (linear): Sequential(
                (0): Linear(in_features=800, out_features=512, bias=True)
                (1): ReLU()
                (2): Linear(in_features=512, out_features=512, bias=True)
                (3): ReLU()
              )
            )
            (q_net): Sequential(
              (0): Linear(in_features=512, out_features=64, bias=True)
              (1): ReLU()
              (2): Linear(in_features=64, out_features=64, bias=True)
              (3): ReLU()
              (4): Linear(in_features=64, out_features=18, bias=True)
            )
          )
        )
policy_class:
    value: <class 'stable_baselines3.dqn.policies.CnnPolicy'>
policy_kwargs:
    value: '{''features_extractor_class'': <class ''my_donkey_model.DonkeyKongCNN''>, ''features_extractor_kwargs'': {''features_dim'': 512}}'
policy_network:
    value: CnnPolicy
q_net:
    value: |-
        QNetwork(
          (features_extractor): DonkeyKongCNN(
            (cnn): Sequential(
              (0): Conv2d(1, 32, kernel_size=(8, 8), stride=(4, 4))
              (1): ReLU()
              (2): Conv2d(32, 64, kernel_size=(4, 4), stride=(2, 2))
              (3): ReLU()
              (4): Conv2d(64, 64, kernel_size=(3, 3), stride=(1, 1))
              (5): ReLU()
              (6): Conv2d(64, 32, kernel_size=(3, 3), stride=(1, 1))
              (7): ReLU()
              (8): Flatten(start_dim=1, end_dim=-1)
            )
            (linear): Sequential(
              (0): Linear(in_features=800, out_features=512, bias=True)
              (1): ReLU()
              (2): Linear(in_features=512, out_features=512, bias=True)
              (3): ReLU()
            )
          )
          (q_net): Sequential(
            (0): Linear(in_features=512, out_features=64, bias=True)
            (1): ReLU()
            (2): Linear(in_features=64, out_features=64, bias=True)
            (3): ReLU()
            (4): Linear(in_features=64, out_features=18, bias=True)
          )
        )
q_net_target:
    value: |-
        QNetwork(
          (features_extractor): DonkeyKongCNN(
            (cnn): Sequential(
              (0): Conv2d(1, 32, kernel_size=(8, 8), stride=(4, 4))
              (1): ReLU()
              (2): Conv2d(32, 64, kernel_size=(4, 4), stride=(2, 2))
              (3): ReLU()
              (4): Conv2d(64, 64, kernel_size=(3, 3), stride=(1, 1))
              (5): ReLU()
              (6): Conv2d(64, 32, kernel_size=(3, 3), stride=(1, 1))
              (7): ReLU()
              (8): Flatten(start_dim=1, end_dim=-1)
            )
            (linear): Sequential(
              (0): Linear(in_features=800, out_features=512, bias=True)
              (1): ReLU()
              (2): Linear(in_features=512, out_features=512, bias=True)
              (3): ReLU()
            )
          )
          (q_net): Sequential(
            (0): Linear(in_features=512, out_features=64, bias=True)
            (1): ReLU()
            (2): Linear(in_features=64, out_features=64, bias=True)
            (3): ReLU()
            (4): Linear(in_features=64, out_features=18, bias=True)
          )
        )
replay_buffer:
    value: <stable_baselines3.common.buffers.ReplayBuffer object at 0x000001D5816BC150>
replay_buffer_class:
    value: <class 'stable_baselines3.common.buffers.ReplayBuffer'>
replay_buffer_kwargs:
    value: '{}'
run_id:
    value: DQN_DonkeyKong
save_path:
    value: ./trained_models/donkey_kong_model
sde_sample_freq:
…
